app/src/main/ml/51.3_ShuffleNet_Channels128.tflite (tflite, 859412 bytes, 100 tensors)

model/batch_normalization_2/FusedBatchNormV3;model/depthwise_conv2d/depthwise;model/depthwise_conv2d/BiasAdd/ReadVariableOp;model/depthwise_conv2d/BiasAdd;model/depthwise_conv2d_3/depthwise f2 [32]
0	0x3550	0.332
1	0x38a0	0.578
2	0x32f9	0.2179
3	0xb5a3	-0.3523
4	0x381b	0.513
5	0x3a6f	0.804
6	0x3a4d	0.7876
7	0xb90e	-0.632
8	0xb555	-0.3333
9	0xb87f	-0.562
10	0xbb12	-0.884
11	0x3577	0.3416
12	0xb80c	-0.506
13	0xb0ea	-0.1536
14	0x37d8	0.4902
15	0x380b	0.5054
16	0xb7bb	-0.4832
17	0xad3d	-0.08185
18	0xbca1	-1.157
19	0x32ce	0.2126
20	0xb64e	-0.394
21	0x25de	0.02292
22	0xb973	-0.681
23	0xb948	-0.66
24	0x36ed	0.4329
25	0xb4e7	-0.3064
26	0x349f	0.2888
27	0xb98c	-0.6934
28	0x3a46	0.784
29	0xaa1e	-0.0478
30	0x3c62	1.096
31	0x3904	0.627

model/batch_normalization_5/FusedBatchNormV3;model/depthwise_conv2d_1/depthwise;model/depthwise_conv2d_1/BiasAdd/ReadVariableOp;model/depthwise_conv2d_1/BiasAdd;model/depthwise_conv2d_3/depthwise f2 [32]
0	0x38a3	0.5796
1	0x3194	0.1743
2	0x3447	0.2673
3	0x30d2	0.1506
4	0x3194	0.1743
5	0x3515	0.3176
6	0xafe3	-0.1232
7	0xb503	-0.3132
8	0xb409	-0.2522
9	0xb679	-0.4045
10	0xb45e	-0.273
11	0xb835	-0.526
12	0x2c32	0.06555
13	0xb812	-0.509
14	0x3450	0.2695
15	0x32b6	0.2097
16	0x3695	0.4114
17	0xb342	-0.2268
18	0x3724	0.4463
19	0xb1b5	-0.1783
20	0xbb3e	-0.9053
21	0x33cf	0.244
22	0xb55b	-0.3347
23	0xb7ca	-0.4868
24	0x3925	0.643
25	0x3346	0.2273
26	0xb73a	-0.4517
27	0xb275	-0.2018
28	0x2c2b	0.0651
29	0xb89b	-0.5757
30	0x3236	0.1941
31	0x388e	0.5693

model/batch_normalization_8/FusedBatchNormV3;model/depthwise_conv2d_2/depthwise;model/depthwise_conv2d_2/BiasAdd/ReadVariableOp;model/depthwise_conv2d_2/BiasAdd;model/depthwise_conv2d_3/depthwise f2 [32]
0	0xbc77	-1.116
1	0xb89b	-0.5757
2	0x3929	0.645
3	0x24c4	0.01862
4	0x216b	0.01058
5	0xb354	-0.229
6	0x387d	0.561
7	0xb91d	-0.639
8	0x366f	0.402
9	0xb859	-0.5435
10	0x24e6	0.01913
11	0x360b	0.3777
12	0xb797	-0.4744
13	0x39b8	0.715
14	0x3270	0.2012
15	0x387a	0.5596
16	0x38bd	0.5923
17	0xb928	-0.6445
18	0x2879	0.03494
19	0x3d41	1.313
20	0xb894	-0.5723
21	0xb91b	-0.638
22	0x37f3	0.4968
23	0x31c8	0.1807
24	0xacbd	-0.07404
25	0x3521	0.3206
26	0x3a63	0.7983
27	0xbb56	-0.917
28	0x31d5	0.1823
29	0xbad1	-0.852
30	0x3008	0.126
31	0xb152	-0.1663

model/batch_normalization_11/FusedBatchNormV3;model/depthwise_conv2d_3/depthwise;model/depthwise_conv2d_3/BiasAdd/ReadVariableOp;model/depthwise_conv2d_3/BiasAdd f2 [32]
0	0x397f	0.687
1	0xb7be	-0.484
2	0xbe71	-1.61
3	0x3d2e	1.295
4	0x38c2	0.5947
5	0x2bed	0.06192
6	0x36c1	0.422
7	0x3416	0.2554
8	0x3427	0.2595
9	0xbc04	-1.004
10	0x3a39	0.778
11	0xbbad	-0.9595
12	0x390b	0.6304
13	0xb847	-0.5347
14	0xb50d	-0.3157
15	0xbc0d	-1.013
16	0xb475	-0.2786
17	0x38d3	0.603
18	0xab52	-0.0572
19	0x3688	0.4082
20	0xb694	-0.4111
21	0x3425	0.259
22	0x2c95	0.0716
23	0x395b	0.6694
24	0xb3e7	-0.247
25	0xb21c	-0.1909
26	0xb56f	-0.3396
27	0xac76	-0.0697
28	0x3905	0.6274
29	0xb718	-0.4434
30	0x3975	0.682
31	0x2471	0.01735

model/batch_normalization_14/FusedBatchNormV3;model/depthwise_conv2d_4/depthwise;model/depthwise_conv2d_4/BiasAdd/ReadVariableOp;model/depthwise_conv2d_4/BiasAdd;model/depthwise_conv2d_11/depthwise f2 [64]
0	0xbd3b	-1.308
1	0xb87b	-0.56
2	0x39c1	0.719
3	0xb8a2	-0.579
4	0xbb0f	-0.8823
5	0xb9f0	-0.742
6	0xb8da	-0.6064
7	0xb779	-0.467
8	0xae10	-0.0947
9	0x3a6d	0.803
10	0xb9c3	-0.72
11	0x38a5	0.5806
12	0xb2d3	-0.2133
13	0x3bc9	0.973
14	0x374c	0.456
15	0xb951	-0.6646
16	0xb99b	-0.7007
17	0x2fbf	0.12103
18	0xbcea	-1.229
19	0x3824	0.5176
20	0xb848	-0.535
21	0xb9ce	-0.7256
22	0xbb81	-0.938
23	0x3425	0.259
24	0x38b1	0.5864
25	0x39e0	0.7344
26	0xba19	-0.762
27	0xad23	-0.08026
28	0xba0c	-0.756
29	0xb8f2	-0.618
30	0xbac9	-0.848
31	0x38fe	0.624
32	0xbb7d	-0.936
33	0xb6a5	-0.4153
34	0xac2e	-0.0653
35	0x395d	0.6704
36	0xbca7	-1.163
37	0xbd1e	-1.279
38	0x3bac	0.959
39	0x2dc2	0.08997
40	0xbb2d	-0.897
41	0xbb66	-0.925
42	0xb75f	-0.4607
43	0x315f	0.1678
44	0x3cc2	1.189
45	0xbafb	-0.8726
46	0xbada	-0.8564
47	0x3b17	0.886
48	0x26a0	0.02588
49	0x3942	0.657
50	0xb88b	-0.568
51	0xba0c	-0.756
52	0x3ba8	0.957
53	0x3ae3	0.861
54	0x3824	0.5176
55	0xb98a	-0.6924
56	0x3942	0.657
57	0x39a7	0.7065
58	0x3ae0	0.8594
59	0xbb31	-0.899
60	0xb642	-0.391
61	0xb86d	-0.553
62	0x386e	0.5537
63	0x371b	0.444

model/batch_normalization_17/FusedBatchNormV3;model/depthwise_conv2d_5/depthwise;model/depthwise_conv2d_5/BiasAdd/ReadVariableOp;model/depthwise_conv2d_5/BiasAdd;model/depthwise_conv2d_11/depthwise f2 [64]
0	0x32c6	0.2117
1	0x2b55	0.05728
2	0xb157	-0.1669
3	0x327b	0.2025
4	0x388c	0.5684
5	0xba69	-0.8013
6	0xb000	-0.125
7	0xb7a9	-0.4788
8	0xb6bd	-0.4211
9	0xb52f	-0.324
10	0xb506	-0.314
11	0x2947	0.04123
12	0xb583	-0.3445
13	0xac96	-0.07166
14	0xba28	-0.7695
15	0x3909	0.6294
16	0xb467	-0.2751
17	0x34c6	0.2983
18	0xb580	-0.3438
19	0xa43f	-0.01659
20	0xac88	-0.0708
21	0xb634	-0.3877
22	0x26eb	0.02702
23	0xb921	-0.641
24	0xa0aa	-0.00911
25	0x29ec	0.04626
26	0x2a49	0.0491
27	0x27f3	0.03105
28	0xb114	-0.1587
29	0xad59	-0.08356
30	0x3579	0.342
31	0x31be	0.1794
32	0xb816	-0.5107
33	0x308c	0.1421
34	0xb9e8	-0.7383
35	0xba58	-0.793
36	0x38bc	0.592
37	0xa978	-0.04272
38	0x3936	0.6514
39	0xbc2c	-1.043
40	0xb457	-0.2712
41	0xbb6e	-0.9287
42	0x2820	0.03223
43	0xb5c1	-0.3596
44	0x34cb	0.2996
45	0x375c	0.46
46	0xb74a	-0.4556
47	0x3037	0.1317
48	0xb6b9	-0.4202
49	0xb1d5	-0.1823
50	0x3947	0.6597
51	0xbaa8	-0.832
52	0xb7ab	-0.4792
53	0xb530	-0.3242
54	0x359b	0.3503
55	0xaeb1	-0.10455
56	0xba4e	-0.788
57	0xb55a	-0.3345
58	0x3888	0.5664
59	0xb974	-0.6816
60	0xb200	-0.1875
61	0xb954	-0.666
62	0xb0a6	-0.1453
63	0x38ce	0.6006

model/batch_normalization_20/FusedBatchNormV3;model/depthwise_conv2d_6/depthwise;model/depthwise_conv2d_6/BiasAdd/ReadVariableOp;model/depthwise_conv2d_6/BiasAdd;model/depthwise_conv2d_11/depthwise f2 [64]
0	0xb790	-0.4727
1	0xb2ab	-0.2084
2	0xb002	-0.1252
3	0xbc15	-1.0205
4	0x3807	0.5034
5	0x36b6	0.4194
6	0xb6f6	-0.435
7	0xb18f	-0.1737
8	0xb60f	-0.3787
9	0x328f	0.205
10	0xbab9	-0.8403
11	0xb5a8	-0.3535
12	0xb661	-0.3987
13	0xb5de	-0.3667
14	0xa6c4	-0.02643
15	0xb5ed	-0.3704
16	0xb77d	-0.468
17	0x328f	0.205
18	0xafcf	-0.122
19	0xb852	-0.54
20	0x2cad	0.07306
21	0xb14c	-0.1655
22	0x3679	0.4045
23	0x3914	0.635
24	0xb8f0	-0.617
25	0xb1d1	-0.1818
26	0xb137	-0.163
27	0x39eb	0.7397
28	0x3a28	0.7695
29	0xaefe	-0.10925
30	0x31c9	0.1808
31	0x354d	0.3313
32	0x33b5	0.2408
33	0x34ac	0.292
34	0x3b6f	0.929
35	0xaf7b	-0.1169
36	0x363d	0.39
37	0x3acd	0.85
38	0x2fd7	0.1225
39	0x227c	0.012665
40	0xb7a3	-0.4773
41	0x39a1	0.7036
42	0xbb20	-0.8906
43	0xbadf	-0.859
44	0xbb61	-0.9224
45	0xb1a2	-0.176
46	0x32f4	0.2173
47	0x28b9	0.0369
48	0xba57	-0.7925
49	0xad0e	-0.079
50	0xb297	-0.2059
51	0x348f	0.285
52	0xbac2	-0.8447
53	0x9a5c	-0.003105
54	0xb265	-0.1998
55	0x37df	0.492
56	0xaeaf	-0.10443
57	0x34fa	0.311
58	0x2509	0.01967
59	0x2fa6	0.1195
60	0xac1a	-0.0641
61	0xba0d	-0.7563
62	0x395b	0.6694
63	0xb940	-0.6562

model/batch_normalization_23/FusedBatchNormV3;model/depthwise_conv2d_7/depthwise;model/depthwise_conv2d_7/BiasAdd/ReadVariableOp;model/depthwise_conv2d_7/BiasAdd;model/depthwise_conv2d_11/depthwise f2 [64]
0	0xb038	-0.1318
1	0x39a3	0.7046
2	0x3b21	0.891
3	0x360c	0.378
4	0xb98d	-0.694
5	0x2b0d	0.05508
6	0xb149	-0.1652
7	0x3831	0.524
8	0x37c6	0.4858
9	0x39c5	0.721
10	0xb4a4	-0.29
11	0xb891	-0.571
12	0xb50e	-0.316
13	0xbb4a	-0.911
14	0xb899	-0.5747
15	0x3576	0.3413
16	0xbb0d	-0.8813
17	0x3c31	1.048
18	0x320a	0.1887
19	0xbc1c	-1.027
20	0x1ffb	0.007793
21	0x3708	0.4395
22	0xb478	-0.2793
23	0x384b	0.5366
24	0x34d4	0.3018
25	0xa982	-0.04303
26	0x3206	0.1882
27	0x3965	0.6743
28	0x3301	0.2189
29	0x3338	0.2256
30	0x3907	0.6284
31	0x388e	0.5693
32	0x34c1	0.297
33	0xbcda	-1.213
34	0x349f	0.2888
35	0xba28	-0.7695
36	0x38ab	0.5835
37	0xb99d	-0.7017
38	0xb86c	-0.5527
39	0xb9fd	-0.7485
40	0xb211	-0.1896
41	0xbb3a	-0.9033
42	0x38e5	0.612
43	0x393b	0.654
44	0xb14c	-0.1655
45	0xb7eb	-0.4949
46	0xad25	-0.0804
47	0x3adc	0.8574
48	0x3a0f	0.7573
49	0xb92a	-0.6455
50	0x39af	0.7104
51	0xb9f9	-0.7466
52	0x336d	0.232
53	0x3355	0.2291
54	0x3969	0.6763
55	0x3adf	0.859
56	0x3897	0.5737
57	0xba97	-0.8237
58	0x3ae0	0.8594
59	0xb2ea	-0.2161
60	0xba06	-0.753
61	0x35e3	0.368
62	0xbaf3	-0.8687
63	0x32ef	0.2167

model/batch_normalization_26/FusedBatchNormV3;model/depthwise_conv2d_8/depthwise;model/depthwise_conv2d_8/BiasAdd/ReadVariableOp;model/depthwise_conv2d_8/BiasAdd;model/depthwise_conv2d_11/depthwise f2 [64]
0	0xb722	-0.4458
1	0x321a	0.1907
2	0x312f	0.162
3	0x3c10	1.016
4	0x3818	0.5117
5	0x3996	0.698
6	0xb339	-0.2257
7	0xb3dd	-0.2457
8	0xa8ca	-0.0374
9	0xb3d0	-0.2441
10	0x3a36	0.7764
11	0x3354	0.229
12	0xb9f4	-0.744
13	0xb797	-0.4744
14	0xb1a1	-0.1759
15	0x331a	0.2219
16	0xb94a	-0.661
17	0x305b	0.1361
18	0x31a0	0.1758
19	0xb0e3	-0.1527
20	0xae28	-0.0962
21	0xaec9	-0.106
22	0xb90a	-0.63
23	0xafe3	-0.1232
24	0x3475	0.2786
25	0xb1f4	-0.186
26	0xb510	-0.3164
27	0xb4fe	-0.312
28	0xb53f	-0.328
29	0x3945	0.6587
30	0x39d2	0.7275
31	0x2eeb	0.1081
32	0x2f4d	0.1141
33	0xb226	-0.1921
34	0xb473	-0.278
35	0x34b0	0.293
36	0xba37	-0.777
37	0x3a88	0.8164
38	0xb7d0	-0.4883
39	0x19a7	0.00276
40	0x291c	0.03992
41	0x3495	0.2864
42	0x2747	0.02843
43	0x3888	0.5664
44	0x3b85	0.94
45	0xb686	-0.4077
46	0x366a	0.401
47	0x1c21	0.004032
48	0xb601	-0.3752
49	0xbc1c	-1.027
50	0xaf1c	-0.1111
51	0x34f0	0.3086
52	0x381b	0.513
53	0x349f	0.2888
54	0xb568	-0.338
55	0x2d29	0.0806
56	0x34be	0.2964
57	0x3811	0.5083
58	0x34f0	0.3086
59	0x3976	0.6826
60	0x2c19	0.064
61	0xb34a	-0.2278
62	0xa3f1	-0.01551
63	0x3086	0.1414

model/batch_normalization_29/FusedBatchNormV3;model/depthwise_conv2d_9/depthwise;model/depthwise_conv2d_9/BiasAdd/ReadVariableOp;model/depthwise_conv2d_9/BiasAdd;model/depthwise_conv2d_11/depthwise f2 [64]
0	0xb535	-0.3254
1	0xb0d2	-0.1506
2	0x3101	0.1564
3	0x39ac	0.709
4	0xb86c	-0.5527
5	0xb1dd	-0.1832
6	0xa882	-0.03522
7	0x3932	0.6494
8	0xb41b	-0.2566
9	0xb40b	-0.2527
10	0xb8a7	-0.5815
11	0xa549	-0.02065
12	0xb96e	-0.6787
13	0xb536	-0.3257
14	0xb162	-0.1682
15	0x37e2	0.4927
16	0xae26	-0.09607
17	0xb588	-0.3457
18	0x2e69	0.10016
19	0xb79d	-0.4758
20	0xb821	-0.516
21	0xb9ef	-0.7417
22	0xbc4b	-1.073
23	0xba33	-0.775
24	0xb814	-0.51
25	0xb8e4	-0.6113
26	0xbb49	-0.9106
27	0xb35e	-0.2302
28	0x3a5d	0.7954
29	0x3907	0.6284
30	0xb690	-0.4102
31	0x34ea	0.3071
32	0xac15	-0.0638
33	0x3859	0.5435
34	0xb37e	-0.2341
35	0xb9a8	-0.707
36	0xb8c7	-0.597
37	0xbc0d	-1.013
38	0xbbbb	-0.9663
39	0x3a93	0.822
40	0x3c66	1.1
41	0xb8e1	-0.61
42	0x3b0c	0.881
43	0x398c	0.6934
44	0xbbd5	-0.979
45	0x35f7	0.3728
46	0x3589	0.346
47	0x2c9d	0.0721
48	0x3c0e	1.014
49	0x358f	0.3474
50	0xb9a8	-0.707
51	0x33c8	0.2432
52	0x308b	0.142
53	0x36d4	0.4268
54	0xb46d	-0.2766
55	0xb4a5	-0.2903
56	0xb511	-0.3167
57	0x376c	0.4639
58	0x381a	0.5127
59	0xb97c	-0.6855
60	0xb24e	-0.197
61	0xb367	-0.2313
62	0x3808	0.504
63	0x32d0	0.2129

model/batch_normalization_32/FusedBatchNormV3;model/depthwise_conv2d_10/depthwise;model/depthwise_conv2d_10/BiasAdd/ReadVariableOp;model/depthwise_conv2d_10/BiasAdd;model/depthwise_conv2d_11/depthwise f2 [64]
0	0x3a63	0.7983
1	0x34d2	0.3013
2	0xba2c	-0.7715
3	0xae99	-0.1031
4	0x3771	0.465
5	0xb20e	-0.1892
6	0x381a	0.5127
7	0xb2f2	-0.217
8	0x2e70	0.1006
9	0xb874	-0.5566
10	0xb9ee	-0.741
11	0xb786	-0.4702
12	0xb84f	-0.5386
13	0xba1e	-0.7646
14	0x30ec	0.1538
15	0x393f	0.656
16	0xbaff	-0.8745
17	0x3624	0.3838
18	0xb152	-0.1663
19	0xb50c	-0.3154
20	0x3042	0.133
21	0x2faa	0.11975
22	0xb0e2	-0.1526
23	0xacf5	-0.07745
24	0xaff8	-0.1245
25	0x34ed	0.3079
26	0xb8e4	-0.6113
27	0x3676	0.4038
28	0x26e9	0.027
29	0xbb4b	-0.9116
30	0x3b70	0.9297
31	0xba06	-0.753
32	0x3b44	0.908
33	0x3b29	0.895
34	0xb3b4	-0.2407
35	0x359c	0.3506
36	0x3aca	0.8486
37	0x37ff	0.4998
38	0xac95	-0.0716
39	0x3936	0.6514
40	0xb75a	-0.4595
41	0xb891	-0.571
42	0xb43f	-0.2654
43	0xb5ca	-0.3618
44	0x3bdb	0.982
45	0xb8a5	-0.5806
46	0xb81e	-0.5146
47	0xba62	-0.798
48	0x351c	0.3193
49	0x3795	0.4739
50	0xb7d4	-0.4893
51	0xb8db	-0.607
52	0xb1c6	-0.1804
53	0xb1a4	-0.1763
54	0xb748	-0.455
55	0x3291	0.2052
56	0xbab8	-0.84
57	0xba52	-0.79
58	0xb5b9	-0.3577
59	0xb7ae	-0.48
60	0x38fd	0.6235
61	0x34f0	0.3086
62	0x2d97	0.08734
63	0x39f8	0.746

model/batch_normalization_35/FusedBatchNormV3;model/depthwise_conv2d_11/depthwise;model/depthwise_conv2d_11/BiasAdd/ReadVariableOp;model/depthwise_conv2d_11/BiasAdd f2 [64]
0	0x315c	0.1675
1	0x35fd	0.3743
2	0x367b	0.405
3	0xb87a	-0.5596
4	0x37fc	0.499
5	0x9fbf	-0.007565
6	0xaa4b	-0.04916
7	0x24fb	0.01945
8	0xb834	-0.5254
9	0x39f5	0.7446
10	0x3729	0.4475
11	0xbc95	-1.1455
12	0xbb23	-0.892
13	0x3441	0.2659
14	0x3860	0.547
15	0x3afc	0.873
16	0x38ec	0.615
17	0x3b47	0.9097
18	0x36a6	0.4155
19	0xb034	-0.1313
20	0x2cca	0.0748
21	0x383e	0.5303
22	0xb0ac	-0.146
23	0xb63d	-0.39
24	0x3849	0.5356
25	0x3855	0.5415
26	0x3822	0.5166
27	0x3a3c	0.7793
28	0x3a63	0.7983
29	0xb586	-0.3452
30	0xbaea	-0.8643
31	0xad83	-0.0861
32	0x2d7e	0.0858
33	0x31c4	0.1802
34	0xacd5	-0.0755
35	0xb499	-0.2874
36	0xb942	-0.657
37	0xb5cf	-0.363
38	0xbbce	-0.9756
39	0xbb41	-0.9067
40	0x3c04	1.004
41	0xb21d	-0.191
42	0x2818	0.03198
43	0x30be	0.1482
44	0xbc49	-1.071
45	0xb572	-0.3403
46	0xa8f4	-0.0387
47	0x3697	0.4119
48	0x2d7e	0.0858
49	0xb41d	-0.257
50	0x2dd0	0.0908
51	0x3b3f	0.906
52	0xb04e	-0.1345
53	0xb09b	-0.1439
54	0xb2d9	-0.214
55	0x35d1	0.3635
56	0x3a16	0.7607
57	0xb80d	-0.5063
58	0xbbbe	-0.968
59	0xb7c3	-0.485
60	0x3936	0.6514
61	0x3820	0.5156
62	0x3b35	0.901
63	0x3499	0.2874

model/batch_normalization_38/FusedBatchNormV3;model/depthwise_conv2d_12/depthwise;model/depthwise_conv2d_12/BiasAdd/ReadVariableOp;model/depthwise_conv2d_12/BiasAdd;model/depthwise_conv2d_15/depthwise f2 [128]
0	0x38a0	0.578
1	0x3c1b	1.026
2	0xb8c9	-0.598
3	0xb243	-0.1957
4	0xb877	-0.558
5	0x382e	0.5225
6	0xbba4	-0.955
7	0x37e7	0.494
8	0xb9d9	-0.731
9	0xb340	-0.2266
10	0x3954	0.666
11	0xbc87	-1.132
12	0xb4b7	-0.2947
13	0xba1f	-0.765
14	0xb3cf	-0.244
15	0xb91a	-0.6377
16	0x379a	0.475
17	0x389e	0.577
18	0xb719	-0.4436
19	0xb508	-0.3145
20	0xb4fd	-0.3118
21	0xae3e	-0.09753
22	0x391d	0.639
23	0x3690	0.4102
24	0x3c92	1.143
25	0xb598	-0.3496
26	0xbbe5	-0.987
27	0xbbee	-0.991
28	0xb525	-0.3215
29	0x3b2b	0.896
30	0x3886	0.5654
31	0xb8d0	-0.6016
32	0x3839	0.528
33	0xb916	-0.6357
34	0x3d00	1.25
35	0xb999	-0.6997
36	0xbc04	-1.004
37	0xb430	-0.2617
38	0xb682	-0.4067
39	0x3081	0.1407
40	0xaa97	-0.05148
41	0x387f	0.562
42	0x39b6	0.714
43	0xbac6	-0.8467
44	0x3c71	1.11
45	0xb9c3	-0.72
46	0x3ac5	0.846
47	0xa71d	-0.02779
48	0x3ab1	0.8364
49	0x3a49	0.7856
50	0xba3e	-0.7803
51	0xb9ae	-0.71
52	0xb78a	-0.4712
53	0xbc43	-1.065
54	0x3c2c	1.043
55	0xbc89	-1.134
56	0x3500	0.3125
57	0x2a8c	0.05115
58	0x3c82	1.127
59	0x38a2	0.579
60	0xbb4c	-0.912
61	0x9cf1	-0.004826
62	0x3460	0.2734
63	0x3b92	0.9463
64	0x39f4	0.744
65	0x380f	0.5073
66	0xbcc0	-1.1875
67	0x3a75	0.807
68	0x3d10	1.266
69	0xb295	-0.2057
70	0x314b	0.1654
71	0x3c0d	1.013
72	0xba9c	-0.826
73	0x3d14	1.27
74	0xb8a0	-0.578
75	0xbc30	-1.047
76	0x247b	0.0175
77	0x39c4	0.7207
78	0xb86c	-0.5527
79	0xb87e	-0.5615
80	0x395b	0.6694
81	0x3c85	1.13
82	0x365e	0.398
83	0x37ad	0.4797
84	0x34ab	0.2917
85	0xb5c9	-0.3616
86	0x39b9	0.7153
87	0x3bbb	0.9663
88	0xb2a2	-0.2073
89	0xb853	-0.5405
90	0xb4fd	-0.3118
91	0x34e7	0.3064
92	0x3a53	0.7905
93	0xabdb	-0.06137
94	0xbc25	-1.036
95	0x3c4a	1.072
96	0x3c0a	1.01
97	0xb06a	-0.138
98	0x3a31	0.774
99	0xbb2c	-0.8965
100	0x3b49	0.9106
101	0xad20	-0.0801
102	0x38b6	0.589
103	0x3b2f	0.898
104	0x35ac	0.3545
105	0x38bf	0.5933
106	0xb42a	-0.2603
107	0xabd6	-0.06122
108	0xb824	-0.5176
109	0x37c9	0.4866
110	0x9f9e	-0.00744
111	0x31fb	0.1869
112	0xb34e	-0.2283
113	0xbbd6	-0.9795
114	0x3a7d	0.811
115	0xb64f	-0.3943
116	0x32a6	0.2078
117	0xbc21	-1.032
118	0xad59	-0.08356
119	0xb990	-0.6953
120	0xb9c0	-0.7188
121	0xb7a9	-0.4788
122	0x3dc8	1.445
123	0x3986	0.6904
124	0x39d8	0.7305
125	0x308d	0.1422
126	0x38f0	0.617
127	0x38ee	0.616

model/batch_normalization_41/FusedBatchNormV3;model/depthwise_conv2d_13/depthwise;model/depthwise_conv2d_13/BiasAdd/ReadVariableOp;model/depthwise_conv2d_13/BiasAdd;model/depthwise_conv2d_15/depthwise f2 [128]
0	0x2c58	0.0679
1	0xb338	-0.2256
2	0x2ffd	0.1248
3	0xb499	-0.2874
4	0xb542	-0.3286
5	0xa968	-0.04224
6	0x3536	0.3257
7	0x38d2	0.6025
8	0xb59b	-0.3503
9	0xb585	-0.345
10	0x27e1	0.03078
11	0x3228	0.1924
12	0x965e	-0.0015545
13	0x3920	0.6406
14	0x35dc	0.3662
15	0xb17f	-0.1718
16	0x36a0	0.414
17	0xb215	-0.1901
18	0xb2e6	-0.2156
19	0x356c	0.3389
20	0x33a9	0.2394
21	0x3562	0.3364
22	0xa414	-0.01593
23	0xb7a5	-0.4778
24	0xb4b2	-0.2935
25	0x39d6	0.7295
26	0xab54	-0.05725
27	0x32ba	0.2102
28	0xb56d	-0.339
29	0x36d3	0.4265
30	0xae58	-0.0991
31	0x33cc	0.2437
32	0x3232	0.1936
33	0xb3ba	-0.2415
34	0xb1ce	-0.1814
35	0x9955	-0.002604
36	0x2e5f	0.09955
37	0xb5f8	-0.373
38	0xb29c	-0.2065
39	0x3502	0.313
40	0xb7bf	-0.4841
41	0xb3fb	-0.2494
42	0x2e85	0.10187
43	0xb339	-0.2257
44	0xb6e6	-0.4312
45	0x265b	0.02483
46	0xb4f5	-0.3098
47	0x3510	0.3164
48	0x29e1	0.04593
49	0xb4bd	-0.2961
50	0x3454	0.2705
51	0xb158	-0.167
52	0x2958	0.04175
53	0xb301	-0.2189
54	0xafe1	-0.1231
55	0x2f3f	0.1132
56	0xb671	-0.4026
57	0xb792	-0.4731
58	0xb4b9	-0.2952
59	0x2e2a	0.0963
60	0xb38e	-0.2361
61	0xaaee	-0.05414
62	0x9b7c	-0.003654
63	0x2dba	0.0895
64	0xa49e	-0.01804
65	0x31db	0.183
66	0x3312	0.221
67	0x3856	0.542
68	0x3836	0.5264
69	0xa4a8	-0.01819
70	0xb0c7	-0.1493
71	0xb52e	-0.3237
72	0x2f17	0.1108
73	0x30df	0.1522
74	0x30b5	0.1471
75	0xa1a8	-0.01105
76	0xae13	-0.0949
77	0x3549	0.3303
78	0x366c	0.4014
79	0xb1fe	-0.1873
80	0xae5e	-0.0995
81	0xa8c3	-0.0372
82	0x34e9	0.307
83	0xb2db	-0.2142
84	0x35ef	0.3708
85	0xb143	-0.1644
86	0xb120	-0.1602
87	0x30e6	0.1531
88	0x315d	0.1676
89	0xb794	-0.4736
90	0xb83a	-0.5283
91	0x314f	0.1659
92	0x2e28	0.0962
93	0xac14	-0.0637
94	0x9ef0	-0.006775
95	0x29f1	0.04642
96	0x2930	0.04053
97	0xa01e	-0.00804
98	0x2f05	0.1097
99	0xb5dd	-0.3665
100	0x3253	0.1976
101	0x2c77	0.06976
102	0xb0fc	-0.1558
103	0xad74	-0.0852
104	0x3160	0.168
105	0xa4f8	-0.01941
106	0x34c4	0.2979
107	0x31e6	0.1843
108	0xb71c	-0.4443
109	0x3372	0.2327
110	0x2662	0.02493
111	0x308a	0.1418
112	0xb0d2	-0.1506
113	0xa057	-0.00848
114	0x2f17	0.1108
115	0xac4c	-0.06714
116	0xa7d7	-0.03062
117	0x27c1	0.03029
118	0xb18e	-0.1736
119	0x272e	0.02805
120	0x277c	0.02924
121	0x2ef0	0.1084
122	0x256f	0.02122
123	0x35a0	0.3516
124	0x39a9	0.7075
125	0x341c	0.2568
126	0x3725	0.4465
127	0xb225	-0.192

model/batch_normalization_44/FusedBatchNormV3;model/depthwise_conv2d_14/depthwise;model/depthwise_conv2d_14/BiasAdd/ReadVariableOp;model/depthwise_conv2d_14/BiasAdd;model/depthwise_conv2d_15/depthwise f2 [128]
0	0x368c	0.4092
1	0xb79b	-0.4753
2	0xb889	-0.567
3	0xaf1c	-0.1111
4	0x368e	0.4097
5	0x3653	0.3953
6	0xb62b	-0.3855
7	0xa873	-0.03476
8	0xb70e	-0.441
9	0xab4e	-0.05707
10	0xb492	-0.2856
11	0xa8b1	-0.03665
12	0x2eaf	0.10443
13	0xb616	-0.3804
14	0xae89	-0.1021
15	0x3517	0.318
16	0xb0bb	-0.1478
17	0x36de	0.4292
18	0x3120	0.1602
19	0xb3aa	-0.2395
20	0x302d	0.1305
21	0x337f	0.2343
22	0xb838	-0.5273
23	0x35f6	0.3726
24	0x37ba	0.483
25	0x2fc5	0.1214
26	0x336a	0.2317
27	0x37ed	0.4954
28	0xb705	-0.4387
29	0xb225	-0.192
30	0xb68b	-0.409
31	0xb243	-0.1957
32	0x324c	0.1968
33	0xb228	-0.1924
34	0xb457	-0.2712
35	0xb6c8	-0.4238
36	0x30c7	0.1493
37	0x3887	0.566
38	0xa9e9	-0.04617
39	0x3362	0.2307
40	0xb10b	-0.1576
41	0x2a96	0.05145
42	0xb477	-0.279
43	0x38d4	0.6035
44	0xb708	-0.4395
45	0x32d9	0.214
46	0xac88	-0.0708
47	0x367e	0.4058
48	0xb248	-0.1963
49	0x31ed	0.1852
50	0x32ab	0.2084
51	0x3525	0.3215
52	0x399d	0.7017
53	0xb20f	-0.1893
54	0x3af3	0.8687
55	0xa9cf	-0.04538
56	0xb7bc	-0.4834
57	0x341a	0.2563
58	0xb983	-0.689
59	0x3361	0.2306
60	0x363f	0.3904
61	0x3741	0.4534
62	0xad5c	-0.08374
63	0x34f3	0.3093
64	0xb732	-0.4497
65	0x38a9	0.5825
66	0xae04	-0.094
67	0x345e	0.273
68	0x373f	0.453
69	0xafdb	-0.12274
70	0x3a8f	0.82
71	0x3c4b	1.073
72	0x2df9	0.0933
73	0x2767	0.02892
74	0xb9cb	-0.724
75	0x3967	0.6753
76	0xb84f	-0.5386
77	0xb56e	-0.3394
78	0xb211	-0.1896
79	0x3828	0.5195
80	0x33b7	0.2411
81	0x39cc	0.7246
82	0xbc1e	-1.029
83	0xb4df	-0.3044
84	0x3784	0.4697
85	0x30e1	0.1525
86	0xaf29	-0.1119
87	0x3513	0.3171
88	0xbc03	-1.003
89	0xb7f4	-0.497
90	0xb14f	-0.1659
91	0x34ae	0.2925
92	0x3280	0.2031
93	0xb894	-0.5723
94	0x2c19	0.064
95	0xacb2	-0.07336
96	0x33ee	0.2478
97	0x233c	0.01413
98	0x382f	0.523
99	0xb0e1	-0.1525
100	0x3166	0.1687
101	0x3c1d	1.028
102	0xaf7f	-0.1171
103	0x2c25	0.06476
104	0xb64b	-0.3933
105	0xb74d	-0.4563
106	0xb6ea	-0.4321
107	0x299d	0.04385
108	0x32da	0.2141
109	0x2dee	0.09265
110	0xb676	-0.4038
111	0x333c	0.2261
112	0x34bb	0.2957
113	0xb1a1	-0.1759
114	0xb313	-0.2211
115	0xb8aa	-0.583
116	0xb8b6	-0.589
117	0x30f5	0.1549
118	0x3234	0.1938
119	0xb2ec	-0.2163
120	0xb333	-0.225
121	0x342e	0.2612
122	0x2cc8	0.0747
123	0x3824	0.5176
124	0x3108	0.1572
125	0x35bc	0.3584
126	0x3779	0.467
127	0x371e	0.4448

model/batch_normalization_47/FusedBatchNormV3;model/depthwise_conv2d_15/depthwise;model/depthwise_conv2d_15/BiasAdd/ReadVariableOp;model/depthwise_conv2d_15/BiasAdd f2 [128]
0	0x39cd	0.725
1	0x3a8e	0.8193
2	0x39dd	0.733
3	0x321f	0.1913
4	0xb5b8	-0.3574
5	0xb9c9	-0.723
6	0x3062	0.137
7	0xbb2b	-0.896
8	0xb889	-0.567
9	0xad75	-0.08527
10	0x3aeb	0.8647
11	0x3c51	1.079
12	0xb94d	-0.6626
13	0x3c00	1.0
14	0xb838	-0.5273
15	0x38a0	0.578
16	0xb8dd	-0.608
17	0x350a	0.315
18	0x2a50	0.04932
19	0x3975	0.682
20	0xb82f	-0.523
21	0x3b83	0.939
22	0xb028	-0.1299
23	0x3195	0.1744
24	0xb022	-0.1292
25	0x3b50	0.914
26	0xbc1f	-1.03
27	0xaf25	-0.11163
28	0xae51	-0.0987
29	0xb79c	-0.4756
30	0xb9e1	-0.735
31	0xaa40	-0.04883
32	0x3b3a	0.9033
33	0xb39e	-0.238
34	0xb8a9	-0.5825
35	0xb8ea	-0.6143
36	0x2e15	0.09503
37	0x3218	0.1904
38	0xb7a1	-0.4768
39	0xbaea	-0.8643
40	0xb8ab	-0.5835
41	0x3364	0.231
42	0x2f28	0.1118
43	0xb6ce	-0.4253
44	0xb69e	-0.4136
45	0xb5b8	-0.3574
46	0xb921	-0.641
47	0xaedb	-0.1071
48	0x2339	0.01411
49	0x36b7	0.4197
50	0xb3b7	-0.2411
51	0x3107	0.1571
52	0xb8e2	-0.6104
53	0x2dfe	0.0936
54	0xab56	-0.0573
55	0x3bbb	0.9663
56	0x3c1e	1.029
57	0x3645	0.3918
58	0xba35	-0.776
59	0xb7b9	-0.4827
60	0xaf59	-0.1148
61	0xac81	-0.0704
62	0xb400	-0.25
63	0x38a0	0.578
64	0xb8f3	-0.6187
65	0x3a69	0.8013
66	0x3ad8	0.8555
67	0xb8ff	-0.6245
68	0x30fa	0.1555
69	0xb40c	-0.253
70	0xbacc	-0.8496
71	0xbc2a	-1.041
72	0xb6aa	-0.4165
73	0x3864	0.549
74	0xb983	-0.689
75	0xb445	-0.2668
76	0xb3d3	-0.2445
77	0xb8bc	-0.592
78	0xbbf2	-0.993
79	0xb92a	-0.6455
80	0xb061	-0.1368
81	0x38a2	0.579
82	0xbb7c	-0.9355
83	0xbc9c	-1.152
84	0xb8d9	-0.606
85	0x39ec	0.74
86	0x2541	0.02052
87	0x24f0	0.01929
88	0x3c21	1.032
89	0xb0cf	-0.1503
90	0xb979	-0.684
91	0xb4e8	-0.3066
92	0xb950	-0.664
93	0x3970	0.6797
94	0xbb3e	-0.9053
95	0x3abd	0.8423
96	0xb2d1	-0.213
97	0x2940	0.04102
98	0x339e	0.238
99	0x34cb	0.2996
100	0x39b7	0.7144
101	0x32e2	0.2151
102	0x3655	0.3958
103	0xb036	-0.1316
104	0xb6cf	-0.4255
105	0x3a87	0.816
106	0xbab5	-0.8384
107	0xb622	-0.3833
108	0x36ec	0.4326
109	0x3372	0.2327
110	0x38c3	0.595
111	0x2944	0.04114
112	0x3328	0.2236
113	0xbc4a	-1.072
114	0xb57c	-0.3428
115	0xb4b7	-0.2947
116	0xb843	-0.5327
117	0xb8fb	-0.6226
118	0xb197	-0.1747
119	0xba20	-0.7656
120	0xb2ab	-0.2084
121	0x3834	0.5254
122	0x3ac1	0.844
123	0xb33e	-0.2263
124	0xb4fc	-0.3115
125	0x30e6	0.1531
126	0x3540	0.3281
127	0x3583	0.3445

model/re_lu/Relu;model/batch_normalization/FusedBatchNormV3;model/conv2d/BiasAdd/ReadVariableOp;model/conv2d/BiasAdd;model/conv2d/Conv2D f2 [24]
0	0xbf16	-1.771
1	0xbf79	-1.868
2	0xad77	-0.0854
3	0x3851	0.5396
4	0x3ffe	1.998
5	0xb87e	-0.5615
6	0x3c48	1.07
7	0x405a	2.176
8	0xbcad	-1.169
9	0x4020	2.062
10	0xbe55	-1.583
11	0x35d6	0.3647
12	0x3dfd	1.497
13	0xbd59	-1.337
14	0x3f3d	1.81
15	0x37da	0.4907
16	0x388c	0.5684
17	0xbe3f	-1.562
18	0xbd73	-1.362
19	0xbf17	-1.772
20	0x4024	2.07
21	0xbe57	-1.585
22	0x3f61	1.845
23	0x3d87	1.382

model/re_lu_1/Relu;model/batch_normalization_1/FusedBatchNormV3;model/conv2d_1/BiasAdd/ReadVariableOp;model/conv2d_1/BiasAdd;model/depthwise_conv2d_3/depthwise;Conv2D f2 [32]
0	0xb899	-0.5747
1	0xadf5	-0.0931
2	0xba9e	-0.827
3	0x345a	0.272
4	0xb949	-0.6606
5	0x39de	0.7334
6	0xb500	-0.3125
7	0x392e	0.6475
8	0xb8a3	-0.5796
9	0x3f9d	1.903
10	0x3c7a	1.119
11	0x2b39	0.05643
12	0x3977	0.683
13	0xb89f	-0.5776
14	0x369b	0.4128
15	0x3acb	0.849
16	0x382d	0.522
17	0xb9ad	-0.7095
18	0x2a76	0.05048
19	0xb33f	-0.2264
20	0x3a83	0.814
21	0x3441	0.2659
22	0x36f2	0.434
23	0x3593	0.3484
24	0xb896	-0.573
25	0xb74b	-0.4558
26	0x3d4e	1.326
27	0xbbb4	-0.963
28	0xbbcd	-0.975
29	0x3c1f	1.03
30	0x99d8	-0.002853
31	0x351d	0.3196

model/batch_normalization_2/FusedBatchNormV3;model/depthwise_conv2d/depthwise;model/depthwise_conv2d/BiasAdd/ReadVariableOp;model/depthwise_conv2d/BiasAdd;model/depthwise_conv2d_3/depthwise1 f2 [1, 3, 3, 32]
0	0xab69	-0.0579
1	0xb14e	-0.1658
2	0xbb46	-0.909
3	0x2a82	0.05084
4	0x3cc2	1.189
5	0x3c50	1.078
6	0xb1d1	-0.1818
7	0x3bbd	0.9673
8	0x38b8	0.59
9	0x26d3	0.02666
10	0xb5d6	-0.3647
11	0x3c8b	1.136
12	0x30fb	0.1556
13	0xbe11	-1.517
14	0x3191	0.174
15	0xa53a	-0.02042
16	0xadb9	-0.0894
17	0xb8d5	-0.604
18	0x3d44	1.316
19	0x40f5	2.479
20	0x3d09	1.259
21	0xb900	-0.625
22	0x35b1	0.3557
23	0xb67e	-0.4058
24	0x3c01	1.001
25	0x3c92	1.143
26	0xb9da	-0.7314
27	0xaedb	-0.1071
28	0xb3bb	-0.2416
29	0xbbc4	-0.9707
30	0xb896	-0.573
31	0xbc0f	-1.015
32	0x2c23	0.06464
33	0xb7a6	-0.478
34	0x3a74	0.8066
35	0xba13	-0.7593
36	0x3558	0.334
37	0xb899	-0.5747
38	0xb804	-0.502
39	0x3c86	1.131
40	0x38d4	0.6035
41	0x3bc7	0.972
42	0xb993	-0.697
43	0x3dc9	1.446
44	0xb782	-0.4692
45	0xbd26	-1.287
46	0x2af9	0.05447
47	0xb406	-0.2515
48	0xb2cc	-0.2124
49	0x3520	0.3203
50	0x4027	2.076
51	0x3af8	0.871
52	0x3956	0.667
53	0x3ba3	0.9546
54	0x390f	0.6323
55	0xb87c	-0.5605
56	0x2f50	0.11426
57	0x346c	0.2764
58	0xb496	-0.2866
59	0x35df	0.367
60	0xb464	-0.2744
61	0xbcb0	-1.172
62	0xb9ee	-0.741
63	0xb067	-0.1376
64	0x3d4c	1.324
65	0xba35	-0.776
66	0x2cae	0.0731
67	0xbc25	-1.036
68	0xb49a	-0.2876
69	0xbb05	-0.8774
70	0x31e0	0.1836
71	0x374b	0.4558
72	0x8d72	-0.0003324
73	0x3d14	1.27
74	0xb5bd	-0.3586
75	0x3a54	0.791
76	0x3262	0.1995
77	0xac34	-0.0657
78	0x3062	0.137
79	0x3690	0.4102
80	0xace9	-0.0767
81	0x3092	0.1428
82	0x3655	0.3958
83	0xba2a	-0.7705
84	0xba9a	-0.825
85	0x3b82	0.9385
86	0x3816	0.5107
87	0xb512	-0.317
88	0x36d1	0.426
89	0x3304	0.2192
90	0x1ad1	0.003328
91	0x2cdc	0.0759
92	0xb462	-0.274
93	0x3833	0.525
94	0x395f	0.6714
95	0x39dd	0.733
96	0xbd5d	-1.341
97	0x36e7	0.4314
98	0xbd95	-1.3955
99	0x36c2	0.4224
100	0xb84b	-0.5366
101	0x38d9	0.606
102	0xbad1	-0.852
103	0x3897	0.5737
104	0x3da1	1.407
105	0xb226	-0.1921
106	0x3c2e	1.045
107	0xbe54	-1.582
108	0xb639	-0.389
109	0x28b5	0.03677
110	0x34ac	0.292
111	0xb6a2	-0.4146
112	0xb6d2	-0.4263
113	0xbb00	-0.875
114	0x3585	0.345
115	0xc02d	-2.088
116	0x3a70	0.8047
117	0x3900	0.625
118	0x37b8	0.4824
119	0xb608	-0.377
120	0xba10	-0.758
121	0x3b25	0.893
122	0xb325	-0.2233
123	0x326b	0.2006
124	0xb404	-0.251
125	0x3a53	0.7905
126	0xbae6	-0.8623
127	0xbc3d	-1.06
128	0xbbb6	-0.964
129	0xb2e3	-0.2152
130	0x35a3	0.3523
131	0xbb72	-0.9307
132	0xba5f	-0.7964
133	0xb4ef	-0.3083
134	0xb225	-0.192
135	0x3075	0.1393
136	0x9f67	-0.00723
137	0x3b27	0.894
138	0x3964	0.674
139	0xb6d8	-0.4277
140	0x342a	0.2603
141	0xb1b8	-0.1787
142	0xb87f	-0.562
143	0xb332	-0.2249
144	0x388f	0.57
145	0xb810	-0.508
146	0x3956	0.667
147	0xbf8d	-1.888
148	0x39c3	0.72
149	0xaa02	-0.04694
150	0x3639	0.389
151	0x369c	0.413
152	0xb9ee	-0.741
153	0x20bc	0.00925
154	0xb437	-0.2634
155	0x3871	0.555
156	0xb873	-0.556
157	0xb82d	-0.522
158	0xbd54	-1.332
159	0xbdbf	-1.437
160	0x35ed	0.3704
161	0xb31c	-0.2222
162	0x3c98	1.148
163	0x3502	0.313
164	0x3934	0.6504
165	0xb4cb	-0.2996
166	0xb800	-0.5
167	0xb577	-0.3416
168	0xbaf6	-0.87
169	0x2e0e	0.0946
170	0xb011	-0.1271
171	0xb4ed	-0.3079
172	0x3b1c	0.8887
173	0xb763	-0.4617
174	0xbce0	-1.219
175	0xb660	-0.3984
176	0x3ab8	0.84
177	0x3a82	0.8135
178	0x3043	0.1332
179	0xb784	-0.4697
180	0xba65	-0.7993
181	0xaef2	-0.1085
182	0xb1f3	-0.1859
183	0xad28	-0.08057
184	0x38ac	0.584
185	0xba7e	-0.8115
186	0x3d61	1.345
187	0x37d6	0.4897
188	0xb64a	-0.393
189	0x3354	0.229
190	0x2e3a	0.0973
191	0x3aa4	0.83
192	0x36d0	0.4258
193	0xb001	-0.1251
194	0xb55f	-0.3357
195	0x31bf	0.1796
196	0xbd4b	-1.323
197	0xbe69	-1.603
198	0xa8c6	-0.0373
199	0x2ebd	0.1053
200	0x381b	0.513
201	0xb17d	-0.1715
202	0xa728	-0.02795
203	0xbe38	-1.555
204	0xae9d	-0.10333
205	0x392d	0.647
206	0x3353	0.2289
207	0xab18	-0.05542
208	0xb327	-0.2235
209	0xb644	-0.3916
210	0xabe2	-0.06158
211	0xb96d	-0.678
212	0x3958	0.668
213	0xb89c	-0.576
214	0xa679	-0.02528
215	0x3af8	0.871
216	0x341d	0.257
217	0xb276	-0.2019
218	0xb958	-0.668
219	0xb3b5	-0.2408
220	0x3281	0.2032
221	0x3738	0.4512
222	0xa9b1	-0.04446
223	0x3e94	1.645
224	0x3620	0.3828
225	0x31a1	0.1759
226	0xbc3d	-1.06
227	0x3e86	1.631
228	0xb892	-0.5713
229	0xbbd7	-0.98
230	0xa6c0	-0.02637
231	0xb750	-0.457
232	0xb91f	-0.64
233	0xb8a5	-0.5806
234	0x3d64	1.348
235	0xb87b	-0.56
236	0x3ac6	0.8467
237	0x3fc2	1.939
238	0xb445	-0.2668
239	0xb116	-0.1589
240	0x3841	0.5317
241	0x38a5	0.5806
242	0xbca2	-1.158
243	0x30d8	0.1514
244	0xb86b	-0.5522
245	0xbc1f	-1.03
246	0xaffe	-0.1249
247	0x3d58	1.336
248	0xbba8	-0.957
249	0x33aa	0.2395
250	0xb86c	-0.5527
251	0x34d7	0.3025
252	0x28dd	0.038
253	0x3a8e	0.8193
254	0xb4cd	-0.3
255	0xac0d	-0.0633

model/batch_normalization_3/FusedBatchNormV3;model/conv2d_2/BiasAdd/ReadVariableOp;model/conv2d_2/BiasAdd f2 [104]
0	0x3036	0.1316
1	0x291d	0.03995
2	0xaa7b	-0.05063
3	0x2351	0.01429
4	0x2ceb	0.07684
5	0x2f45	0.1136
6	0xa266	-0.0125
7	0x32d2	0.2131
8	0xac51	-0.06744
9	0xafdc	-0.1228
10	0x3034	0.1313
11	0x2e34	0.0969
12	0x2fa3	0.1193
13	0xafd0	-0.1221
14	0xa541	-0.02052
15	0x213c	0.01022
16	0xa0d7	-0.00945
17	0x2c55	0.0677
18	0x2819	0.032
19	0x26cb	0.02654
20	0x28c4	0.03723
21	0x9cb4	-0.004593
22	0x2893	0.03574
23	0x23e0	0.01538
24	0x1a2c	0.003014
25	0xa2de	-0.01341
26	0x2e6d	0.1004
27	0x2dc1	0.0899
28	0xa7e3	-0.0308
29	0x2375	0.014565
30	0x2d64	0.0842
31	0x15dd	0.001431
32	0xabed	-0.06192
33	0x2e7b	0.10126
34	0x2a1f	0.04782
35	0x2c19	0.064
36	0x339f	0.2382
37	0x2af2	0.05426
38	0x280b	0.0316
39	0x2d1a	0.0797
40	0xaaa3	-0.05185
41	0xa249	-0.012276
42	0x2efa	0.109
43	0xa44c	-0.01678
44	0x2506	0.01962
45	0x2ce7	0.0766
46	0xa427	-0.01622
47	0x25a6	0.02206
48	0xabee	-0.06195
49	0x3098	0.1436
50	0xa686	-0.02548
51	0xa734	-0.02814
52	0x1f32	0.007027
53	0x2595	0.0218
54	0x295c	0.04187
55	0x2b66	0.0578
56	0x2c93	0.0715
57	0x244a	0.01675
58	0x2d2a	0.0807
59	0x29fc	0.04675
60	0x336a	0.2317
61	0x2c2e	0.0653
62	0x2d92	0.08704
63	0x340a	0.2524
64	0xa802	-0.0313
65	0x24d4	0.01886
66	0x1dd6	0.0057
67	0x2c0a	0.0631
68	0x2ed8	0.10693
69	0x98ea	-0.0024
70	0x2cb1	0.0733
71	0xa50e	-0.01974
72	0xb033	-0.1312
73	0x2521	0.02003
74	0xa0e4	-0.00955
75	0x317f	0.1718
76	0xac22	-0.0646
77	0xa018	-0.007996
78	0xaddc	-0.09155
79	0xa474	-0.0174
80	0xac38	-0.0659
81	0xaee3	-0.1076
82	0xad7a	-0.0856
83	0x2d9b	0.0876
84	0x2b0c	0.05505
85	0xa583	-0.02153
86	0x2c99	0.07184
87	0xab34	-0.05627
88	0xacf4	-0.0774
89	0xa7af	-0.03001
90	0xa329	-0.013985
91	0x2088	0.00885
92	0x2dc7	0.0903
93	0x2781	0.02931
94	0xa9dd	-0.0458
95	0x2334	0.01407
96	0x2ee4	0.10767
97	0x9ed9	-0.006687
98	0x2120	0.01001
99	0xac0a	-0.0631
100	0x28cc	0.03748
101	0x2a97	0.05148
102	0xaaf7	-0.0544
103	0x29c2	0.04498

model/re_lu_3/Relu;model/batch_normalization_4/FusedBatchNormV3;model/conv2d_3/BiasAdd/ReadVariableOp;model/conv2d_3/BiasAdd;model/depthwise_conv2d_3/depthwise;Conv2D f2 [32]
0	0xaf97	-0.1186
1	0x3058	0.1357
2	0x3911	0.6333
3	0xae39	-0.0972
4	0x2cdb	0.07587
5	0xb130	-0.1621
6	0x31e1	0.1837
7	0x3965	0.6743
8	0xb302	-0.219
9	0x3ad3	0.853
10	0x3926	0.6436
11	0xacbd	-0.07404
12	0x3105	0.1569
13	0x236d	0.0145
14	0xb691	-0.4104
15	0x38b1	0.5864
16	0xbbb8	-0.965
17	0x39f4	0.744
18	0xb3d1	-0.2443
19	0x381b	0.513
20	0x3c1a	1.025
21	0x301a	0.1282
22	0xbaa4	-0.83
23	0x3438	0.2637
24	0x3cf8	1.242
25	0xb9ef	-0.7417
26	0xb4fa	-0.311
27	0xbacc	-0.8496
28	0x3cdc	1.215
29	0x3965	0.6743
30	0xb868	-0.551
31	0x2ddf	0.09174

model/batch_normalization_5/FusedBatchNormV3;model/depthwise_conv2d_1/depthwise;model/depthwise_conv2d_1/BiasAdd/ReadVariableOp;model/depthwise_conv2d_1/BiasAdd;model/depthwise_conv2d_3/depthwise1 f2 [1, 3, 3, 32]
0	0x3384	0.2349
1	0xb053	-0.1351
2	0x39c6	0.7217
3	0xb428	-0.2598
4	0x32a2	0.2073
5	0xb079	-0.1398
6	0xb8e0	-0.6094
7	0x3083	0.141
8	0x31d2	0.1819
9	0x3898	0.574
10	0xb0c3	-0.1488
11	0x3102	0.1565
12	0x35fb	0.3738
13	0x2525	0.0201
14	0xbc05	-1.005
15	0xb737	-0.451
16	0x381e	0.5146
17	0x39c5	0.721
18	0x9d59	-0.005222
19	0xbfb1	-1.923
20	0x380e	0.507
21	0xad7c	-0.0857
22	0xb006	-0.1257
23	0xbb61	-0.9224
24	0xb3d4	-0.2446
25	0xb56c	-0.3389
26	0x35fa	0.3735
27	0xb75a	-0.4595
28	0xba90	-0.8203
29	0x39ac	0.709
30	0xbb35	-0.901
31	0xb00d	-0.1266
32	0xa68f	-0.02562
33	0xb4cb	-0.2996
34	0x3670	0.4023
35	0xae0d	-0.09454
36	0xac70	-0.06934
37	0xb855	-0.5415
38	0xb9d4	-0.7285
39	0x360d	0.3782
40	0xb820	-0.5156
41	0x3a55	0.7915
42	0x3b3f	0.906
43	0x352b	0.323
44	0x3aaf	0.8354
45	0xae81	-0.1016
46	0xba44	-0.783
47	0x39c0	0.7188
48	0xb646	-0.392
49	0x3788	0.4707
50	0xba25	-0.768
51	0x3bfe	0.999
52	0x3d01	1.251
53	0xbc16	-1.021
54	0x3873	0.556
55	0x3bbc	0.967
56	0xb185	-0.1725
57	0x37de	0.4917
58	0x3af2	0.868
59	0x3929	0.645
60	0x35b1	0.3557
61	0xaf3a	-0.1129
62	0x3db8	1.43
63	0xab2b	-0.056
64	0xae79	-0.10114
65	0xbb7b	-0.935
66	0xb057	-0.1356
67	0x37b1	0.4807
68	0x3892	0.5713
69	0xb78f	-0.4724
70	0xadfb	-0.09344
71	0x34f1	0.3088
72	0xb202	-0.1877
73	0xb13e	-0.1638
74	0x31a5	0.1764
75	0x2cda	0.0758
76	0x36bf	0.4216
77	0x2f5d	0.11505
78	0xb496	-0.2866
79	0x2d8c	0.0867
80	0xb2b3	-0.2094
81	0x388c	0.5684
82	0xb9c9	-0.723
83	0x3640	0.3906
84	0x359e	0.351
85	0xb395	-0.2369
86	0x30a6	0.1453
87	0x329a	0.2063
88	0xb628	-0.3848
89	0x30a2	0.1448
90	0xbaa0	-0.828
91	0x305b	0.1361
92	0x3c1c	1.027
93	0x32c9	0.212
94	0xbe12	-1.518
95	0xb5ae	-0.355
96	0xb5b2	-0.356
97	0xad9f	-0.0878
98	0xb9b2	-0.712
99	0xb90d	-0.6313
100	0xba86	-0.8154
101	0x3906	0.628
102	0xaf33	-0.1125
103	0x3928	0.6445
104	0xa4ce	-0.01877
105	0x3940	0.6562
106	0x3c63	1.097
107	0x367b	0.405
108	0xbea2	-1.658
109	0x2ff1	0.1241
110	0x305b	0.1361
111	0x344b	0.2683
112	0xb896	-0.573
113	0xa9e2	-0.04596
114	0xba45	-0.7837
115	0x3afe	0.874
116	0x3797	0.4744
117	0xbd58	-1.336
118	0xb953	-0.6655
119	0x385f	0.5464
120	0xbb37	-0.902
121	0xbb5a	-0.919
122	0x382a	0.5205
123	0x2d5d	0.0838
124	0xbafc	-0.873
125	0x3c1e	1.029
126	0xbd7c	-1.371
127	0xb81f	-0.515
128	0xbbc0	-0.9688
129	0x3e0e	1.514
130	0xb6aa	-0.4165
131	0x3aac	0.834
132	0x37bc	0.4834
133	0x31de	0.1833
134	0x37b4	0.4814
135	0x3ca5	1.161
136	0xa865	-0.03433
137	0xb2e8	-0.2158
138	0x39cf	0.726
139	0x381d	0.514
140	0xbda3	-1.409
141	0x3919	0.637
142	0xb53d	-0.3274
143	0x34f6	0.31
144	0xbb00	-0.875
145	0x350d	0.3157
146	0x3b71	0.93
147	0x3be7	0.988
148	0xbc71	-1.11
149	0x393c	0.6543
150	0x38db	0.607
151	0x3a78	0.8086
152	0xbb9a	-0.95
153	0xae75	-0.1009
154	0x3a0a	0.755
155	0x38d5	0.604
156	0xb9e9	-0.739
157	0xb481	-0.2815
158	0x3d1c	1.277
159	0xb8af	-0.5854
160	0xb0c1	-0.1486
161	0x3148	0.165
162	0x36f2	0.434
163	0x35bc	0.3584
164	0x3822	0.5166
165	0xb1f9	-0.1866
166	0xb9d9	-0.731
167	0xba58	-0.793
168	0xb28d	-0.2047
169	0xac96	-0.07166
170	0x35fd	0.3743
171	0x33a4	0.2388
172	0x36b1	0.4182
173	0x3aff	0.8745
174	0xbc43	-1.065
175	0x2eb6	0.10486
176	0x0dda	0.0003572
177	0x2b2d	0.05606
178	0xb684	-0.4072
179	0xbd70	-1.359
180	0x3b5e	0.921
181	0x31d3	0.182
182	0x3b78	0.9336
183	0xb472	-0.2778
184	0xba9a	-0.825
185	0x3cdc	1.215
186	0xb912	-0.634
187	0x38ef	0.6167
188	0x394e	0.663
189	0xb210	-0.1895
190	0x3c17	1.022
191	0xb080	-0.1406
192	0xac13	-0.06366
193	0xad5b	-0.0837
194	0xb839	-0.528
195	0xb57d	-0.343
196	0x3340	0.2266
197	0xb2b7	-0.2098
198	0x3acf	0.851
199	0x3001	0.1251
200	0x32f4	0.2173
201	0x3b46	0.909
202	0xbdbe	-1.436
203	0xaf98	-0.11865
204	0xa7f7	-0.03111
205	0x323c	0.1948
206	0x347f	0.281
207	0xb8cf	-0.601
208	0xafb3	-0.1203
209	0xb983	-0.689
210	0xa65f	-0.02489
211	0x3403	0.2507
212	0x3895	0.5728
213	0x3a82	0.8135
214	0xb66c	-0.4014
215	0x34d9	0.303
216	0x3cce	1.201
217	0xa736	-0.02817
218	0xb4b7	-0.2947
219	0xb8b9	-0.5903
220	0x3829	0.52
221	0x3989	0.692
222	0xba32	-0.7744
223	0xb2e7	-0.2157
224	0xb5f4	-0.372
225	0x2dae	0.08875
226	0xb955	-0.6665
227	0xba50	-0.789
228	0xb92d	-0.647
229	0xbdae	-1.42
230	0x3a27	0.769
231	0xbb37	-0.902
232	0x3924	0.6426
233	0xb2e5	-0.2155
234	0xb81e	-0.5146
235	0xa89d	-0.03604
236	0x3e26	1.537
237	0xb576	-0.3413
238	0x3cb3	1.175
239	0xbbb6	-0.964
240	0x3577	0.3416
241	0xb745	-0.4543
242	0x38d9	0.606
243	0xb472	-0.2778
244	0xbad2	-0.8525
245	0x334f	0.2284
246	0xb5d2	-0.3638
247	0x2af7	0.0544
248	0xacdb	-0.07587
249	0xbc3e	-1.061
250	0x36d8	0.4277
251	0xb886	-0.5654
252	0x331e	0.2224
253	0x2cc4	0.07446
254	0xb6e4	-0.4307
255	0x324c	0.1968

model/batch_normalization_6/FusedBatchNormV3;model/conv2d_4/BiasAdd/ReadVariableOp;model/conv2d_4/BiasAdd f2 [128]
0	0x3014	0.1274
1	0xa7da	-0.03067
2	0xa831	-0.03275
3	0x2c1b	0.06415
4	0xa9d9	-0.0457
5	0x2c85	0.0706
6	0xae0e	-0.0946
7	0x1b51	0.003572
8	0xac97	-0.0717
9	0xafdd	-0.12286
10	0x2a63	0.0499
11	0xac90	-0.0713
12	0xa353	-0.014305
13	0x2bf8	0.06226
14	0xaaab	-0.0521
15	0x22bb	0.013145
16	0xaa03	-0.04697
17	0x2bfc	0.06238
18	0x2903	0.03915
19	0xaef4	-0.10864
20	0x2ac4	0.05286
21	0x1ea4	0.006485
22	0x2d40	0.08203
23	0x28ed	0.03848
24	0x2a8a	0.0511
25	0x2e96	0.1029
26	0x2648	0.02454
27	0x1eb9	0.006565
28	0x2125	0.01005
29	0xa5a2	-0.022
30	0x1964	0.002632
31	0xad60	-0.084
32	0x9c4c	-0.004196
33	0x2d9d	0.0877
34	0x9604	-0.001469
35	0x2d73	0.08514
36	0xa8c4	-0.03723
37	0x9db5	-0.005573
38	0x2598	0.02185
39	0xa725	-0.02791
40	0xac78	-0.0698
41	0xa8d9	-0.03787
42	0xa975	-0.04263
43	0xad9f	-0.0878
44	0xadb7	-0.0893
45	0x3168	0.169
46	0x95de	-0.001432
47	0x1eb4	0.006546
48	0x2c55	0.0677
49	0x239a	0.01485
50	0xac79	-0.0699
51	0xa9e9	-0.04617
52	0x2aa7	0.05197
53	0xa28c	-0.01279
54	0xa5fa	-0.02335
55	0xa95e	-0.04193
56	0x2e8c	0.1023
57	0xaa08	-0.04712
58	0x30d4	0.1509
59	0x2727	0.02794
60	0xa1ba	-0.011185
61	0x9bd5	-0.003824
62	0x1eeb	0.006756
63	0x2d1f	0.08
64	0xa504	-0.01959
65	0xa5dd	-0.0229
66	0xa8d9	-0.03787
67	0x2c68	0.06885
68	0x2ea0	0.1035
69	0x28e2	0.03815
70	0x285b	0.03403
71	0xaa82	-0.05084
72	0xa8d8	-0.03784
73	0x21ad	0.011086
74	0x2905	0.0392
75	0x30c5	0.149
76	0x240f	0.01585
77	0x1ed3	0.006664
78	0xa92d	-0.04044
79	0x2abc	0.0526
80	0xad94	-0.08716
81	0x26a4	0.02594
82	0xafff	-0.12494
83	0xaa73	-0.05038
84	0x2550	0.02075
85	0x2467	0.0172
86	0xa86b	-0.03452
87	0xac0d	-0.0633
88	0x2a1e	0.0478
89	0xaf9b	-0.11884
90	0xae38	-0.09717
91	0x2956	0.0417
92	0xaac7	-0.05295
93	0x2fd6	0.12244
94	0xafaa	-0.11975
95	0x2b45	0.0568
96	0x302d	0.1305
97	0x2834	0.03284
98	0xab71	-0.05814
99	0x98da	-0.002369
100	0x3011	0.1271
101	0x2c74	0.0696
102	0xb13a	-0.1633
103	0xad1f	-0.08
104	0x1fda	0.007668
105	0xa771	-0.02907
106	0x16cf	0.001662
107	0x2727	0.02794
108	0x2c39	0.066
109	0x2758	0.02869
110	0x23cb	0.01522
111	0x2ba1	0.0596
112	0x9cf1	-0.004826
113	0xac1b	-0.06415
114	0x25c2	0.02249
115	0x1f89	0.00736
116	0x240b	0.0158
117	0xad17	-0.0795
118	0x2be3	0.0616
119	0x3002	0.1252
120	0x2d43	0.0822
121	0xa023	-0.00808
122	0xa9b4	-0.04456
123	0xa5f1	-0.02321
124	0x2a37	0.04855
125	0x9f07	-0.006863
126	0xab26	-0.05585
127	0xa430	-0.01636

model/re_lu_5/Relu;model/batch_normalization_7/FusedBatchNormV3;model/conv2d_5/BiasAdd/ReadVariableOp;model/conv2d_5/BiasAdd;model/depthwise_conv2d_3/depthwise;Conv2D f2 [32]
0	0x389e	0.577
1	0x3564	0.337
2	0x39f5	0.7446
3	0x374c	0.456
4	0x2be3	0.0616
5	0xb7a0	-0.4766
6	0x32a6	0.2078
7	0x381f	0.515
8	0x323e	0.1951
9	0x3578	0.3418
10	0x3900	0.625
11	0x3a3f	0.781
12	0x3a0e	0.757
13	0xba6f	-0.804
14	0x3a91	0.821
15	0x3cbd	1.185
16	0x3941	0.6567
17	0x3a89	0.817
18	0xba5e	-0.796
19	0x3885	0.565
20	0x3b30	0.8984
21	0xb411	-0.2542
22	0xabf9	-0.0623
23	0x1f00	0.006836
24	0x3407	0.2517
25	0x3c08	1.008
26	0x3c55	1.083
27	0xadcf	-0.09076
28	0x38e1	0.61
29	0x348d	0.2844
30	0xb75a	-0.4595
31	0x34e5	0.306

model/batch_normalization_8/FusedBatchNormV3;model/depthwise_conv2d_2/depthwise;model/depthwise_conv2d_2/BiasAdd/ReadVariableOp;model/depthwise_conv2d_2/BiasAdd;model/depthwise_conv2d_3/depthwise1 f2 [1, 3, 3, 32]
0	0x3c63	1.097
1	0xba4d	-0.7876
2	0x2349	0.01423
3	0x3416	0.2554
4	0x3c72	1.111
5	0x326a	0.2004
6	0x38f7	0.6206
7	0x3c33	1.05
8	0x35d1	0.3635
9	0xb6ff	-0.4373
10	0xb9c6	-0.7217
11	0xb489	-0.2834
12	0xbbfc	-0.998
13	0x348e	0.2847
14	0xb640	-0.3906
15	0x2ac9	0.053
16	0xa697	-0.02574
17	0x36b7	0.4197
18	0xb950	-0.664
19	0xb988	-0.6914
20	0xb0d3	-0.1508
21	0x3bd5	0.979
22	0xb19e	-0.1755
23	0x38ae	0.585
24	0x39c1	0.719
25	0x3cbb	1.183
26	0x33b4	0.2407
27	0x379b	0.4753
28	0xb8cb	-0.599
29	0xb9b1	-0.7114
30	0xb804	-0.502
31	0xa8df	-0.03806
32	0x3c17	1.022
33	0x3a35	0.776
34	0xbb44	-0.908
35	0x3b24	0.8926
36	0xb863	-0.5483
37	0x3914	0.635
38	0x2435	0.01643
39	0x38a7	0.5815
40	0xb86d	-0.553
41	0xb71c	-0.4443
42	0xb645	-0.3918
43	0xb275	-0.2018
44	0x3a9f	0.8276
45	0xb355	-0.2291
46	0xbab2	-0.837
47	0xbb5b	-0.9194
48	0xb006	-0.1257
49	0x3aab	0.8335
50	0xb7f4	-0.497
51	0xbbde	-0.9834
52	0xb55b	-0.3347
53	0x3c59	1.087
54	0xb018	-0.1279
55	0x30e8	0.1533
56	0x382a	0.5205
57	0x3819	0.512
58	0x307c	0.1401
59	0x2c3b	0.0661
60	0x3c95	1.1455
61	0x3878	0.5586
62	0xb056	-0.1355
63	0x2cb6	0.0736
64	0x3902	0.626
65	0x3ce6	1.225
66	0xb990	-0.6953
67	0x381e	0.5146
68	0xb77f	-0.4685
69	0x3967	0.6753
70	0xb349	-0.2277
71	0x2c69	0.0689
72	0xbb56	-0.917
73	0x364c	0.3936
74	0xbc03	-1.003
75	0xb8dd	-0.608
76	0x308c	0.1421
77	0x2c92	0.0714
78	0xb5a0	-0.3516
79	0xb8ed	-0.6157
80	0xb4cd	-0.3
81	0x3bba	0.966
82	0xb94b	-0.6616
83	0xb02f	-0.1307
84	0xb75d	-0.4602
85	0xbc5d	-1.091
86	0x383b	0.529
87	0xb86b	-0.5522
88	0x38da	0.6064
89	0xb8a3	-0.5796
90	0xbac2	-0.8447
91	0x388b	0.568
92	0x3229	0.1925
93	0x2eca	0.1061
94	0x3931	0.649
95	0x39b1	0.7114
96	0x35c3	0.36
97	0x39a6	0.706
98	0x359d	0.3508
99	0xbcb6	-1.178
100	0x39b0	0.711
101	0x3b30	0.8984
102	0xba79	-0.809
103	0xa999	-0.04373
104	0xba9f	-0.8276
105	0x3a10	0.758
106	0x32ce	0.2126
107	0x3713	0.4421
108	0x3214	0.19
109	0xaf18	-0.11084
110	0x36d3	0.4265
111	0x2d3f	0.082
112	0x2928	0.04028
113	0x38fe	0.624
114	0x324a	0.1965
115	0x3342	0.2268
116	0x3689	0.4084
117	0x23e0	0.01538
118	0xaee3	-0.1076
119	0xb52c	-0.3232
120	0x359a	0.35
121	0xb61f	-0.3826
122	0xb6ce	-0.4253
123	0xac75	-0.06964
124	0xba2d	-0.772
125	0x36e8	0.4316
126	0xb5f8	-0.373
127	0xbb14	-0.885
128	0xb5d6	-0.3647
129	0xa619	-0.02382
130	0xb15b	-0.1674
131	0xa9f0	-0.0464
132	0xbb49	-0.9106
133	0xba85	-0.815
134	0xbea0	-1.656
135	0xb7dc	-0.4912
136	0xac72	-0.06946
137	0x39fb	0.7476
138	0x3852	0.54
139	0xbc18	-1.023
140	0x2fb9	0.12067
141	0x35dd	0.3665
142	0x3185	0.1725
143	0xb838	-0.5273
144	0xb0ea	-0.1536
145	0xb50d	-0.3157
146	0x375f	0.4607
147	0xb982	-0.6885
148	0xb7fa	-0.4985
149	0xa14a	-0.01033
150	0xb915	-0.6353
151	0xb91c	-0.6387
152	0xa8d5	-0.03775
153	0xac99	-0.07184
154	0xa5b0	-0.02222
155	0x3c27	1.038
156	0x3ae4	0.8613
157	0xb808	-0.504
158	0xb931	-0.649
159	0x3875	0.557
160	0x289f	0.0361
161	0xbc54	-1.082
162	0x3492	0.2856
163	0x352d	0.3235
164	0xb846	-0.534
165	0x2e7e	0.10144
166	0xb4bd	-0.2961
167	0x3b7d	0.936
168	0xb8c0	-0.5938
169	0x32c6	0.2117
170	0x358e	0.3472
171	0xb916	-0.6357
172	0x3d1d	1.278
173	0xb4d3	-0.3015
174	0xbba6	-0.956
175	0xac5c	-0.0681
176	0x3416	0.2554
177	0xaaed	-0.0541
178	0x36da	0.4282
179	0xb12d	-0.1617
180	0x3a98	0.824
181	0x334f	0.2284
182	0xb338	-0.2256
183	0xb966	-0.675
184	0xb4d0	-0.3008
185	0xbadb	-0.857
186	0xb83a	-0.5283
187	0xb8ff	-0.6245
188	0xbae6	-0.8623
189	0x36e8	0.4316
190	0x39b8	0.715
191	0x3514	0.3174
192	0xb827	-0.519
193	0x32ea	0.2161
194	0xb22e	-0.1931
195	0xb50a	-0.315
196	0xb884	-0.5645
197	0xbc32	-1.049
198	0x301b	0.1283
199	0xb760	-0.461
200	0x390d	0.6313
201	0x3407	0.2517
202	0x32e6	0.2156
203	0x3377	0.2333
204	0x2b83	0.0587
205	0x3532	0.3247
206	0xb6dd	-0.429
207	0x337e	0.2341
208	0x244b	0.01677
209	0xb878	-0.5586
210	0xb3dd	-0.2457
211	0xa1e6	-0.01152
212	0x3bca	0.9736
213	0x32ca	0.2122
214	0xafbc	-0.12085
215	0x3e82	1.627
216	0xb634	-0.3877
217	0xb055	-0.1354
218	0xba0f	-0.7573
219	0x36a7	0.4158
220	0x393d	0.655
221	0x3ba6	0.956
222	0x2709	0.02748
223	0xb93d	-0.655
224	0x3414	0.255
225	0xad16	-0.07947
226	0xb057	-0.1356
227	0xba8f	-0.82
228	0x39eb	0.7397
229	0xb85d	-0.5454
230	0x38cb	0.599
231	0x381e	0.5146
232	0x3d06	1.256
233	0xb5f4	-0.372
234	0x2ed4	0.1067
235	0x35c8	0.3613
236	0xb2f7	-0.2177
237	0xbd42	-1.314
238	0x39f2	0.743
239	0x2cec	0.0769
240	0xbba1	-0.9536
241	0xb0fb	-0.1556
242	0x3415	0.2551
243	0xb5c2	-0.3599
244	0x2564	0.02106
245	0x35d8	0.3652
246	0xaa78	-0.05054
247	0xb797	-0.4744
248	0xb939	-0.653
249	0xbb5a	-0.919
250	0x3584	0.3447
251	0x38bc	0.592
252	0xb916	-0.6357
253	0x3a0c	0.756
254	0xb4a2	-0.2896
255	0x3b21	0.891

model/batch_normalization_9/FusedBatchNormV3;model/conv2d_6/BiasAdd/ReadVariableOp;model/conv2d_6/BiasAdd f2 [128]
0	0x28b1	0.03665
1	0xa4e3	-0.01909
2	0xa841	-0.03323
3	0x947b	-0.001094
4	0xad57	-0.08344
5	0x20b6	0.0092
6	0xaf94	-0.1184
7	0xa8fc	-0.03894
8	0xaf8e	-0.11804
9	0xb0c7	-0.1493
10	0xa52e	-0.02023
11	0x100a	0.000493
12	0x95ed	-0.001447
13	0x2d05	0.0784
14	0xb083	-0.141
15	0xacb7	-0.07367
16	0xaae7	-0.05392
17	0xa412	-0.0159
18	0xa344	-0.01419
19	0xae3b	-0.09735
20	0x267e	0.02536
21	0x254c	0.02069
22	0xa460	-0.01709
23	0x299b	0.0438
24	0x96b4	-0.0016365
25	0x2489	0.01772
26	0x2776	0.02914
27	0xaadc	-0.0536
28	0xa208	-0.01178
29	0xad9b	-0.0876
30	0x98b8	-0.002304
31	0x258d	0.02168
32	0x1f12	0.006905
33	0xaeee	-0.1083
34	0xacbd	-0.07404
35	0xaa87	-0.051
36	0xb0c8	-0.1494
37	0x1fcc	0.007614
38	0xaa5d	-0.0497
39	0xa813	-0.03183
40	0xab43	-0.05673
41	0xa894	-0.03577
42	0x2910	0.03955
43	0xad71	-0.085
44	0xaa75	-0.05045
45	0x2c5c	0.0681
46	0x9d50	-0.005188
47	0x9fa9	-0.00748
48	0xad85	-0.08624
49	0x1d90	0.005432
50	0xa8e7	-0.0383
51	0x2335	0.01408
52	0x2dae	0.08875
53	0xacca	-0.0748
54	0xad23	-0.08026
55	0xa489	-0.01772
56	0x2ff9	0.1246
57	0xa77c	-0.02924
58	0x2b44	0.05676
59	0xacc4	-0.07446
60	0xa75b	-0.02873
61	0x286a	0.0345
62	0xb031	-0.131
63	0xa2e8	-0.01349
64	0xaf22	-0.11145
65	0x26b6	0.02621
66	0x1d81	0.005375
67	0x24c9	0.01869
68	0x2b23	0.05576
69	0x9e6c	-0.00627
70	0xaf4c	-0.114
71	0x23ff	0.01562
72	0x24b8	0.01843
73	0xaccd	-0.075
74	0x2962	0.04205
75	0xadc0	-0.08984
76	0x9fea	-0.00773
77	0x2ed9	0.107
78	0x22a9	0.01301
79	0xae40	-0.09766
80	0xac86	-0.0707
81	0x2fdb	0.12274
82	0xad2e	-0.08093
83	0x9e34	-0.006058
84	0x1478	0.001091
85	0x9895	-0.002237
86	0xaf82	-0.1173
87	0xb009	-0.1261
88	0x254f	0.02074
89	0xa92d	-0.04044
90	0x2d29	0.0806
91	0xaef3	-0.1086
92	0xac59	-0.06793
93	0xa3ed	-0.01548
94	0xab4a	-0.05695
95	0x20a4	0.00906
96	0x2eea	0.10803
97	0x2c5e	0.06824
98	0xa610	-0.02368
99	0xad23	-0.08026
100	0xae9d	-0.10333
101	0x215a	0.01045
102	0xac2e	-0.0653
103	0xae2d	-0.0965
104	0xa688	-0.02551
105	0xadaa	-0.0885
106	0x23cb	0.01522
107	0x2776	0.02914
108	0xa996	-0.04364
109	0xac32	-0.06555
110	0xa4a5	-0.01814
111	0xaa79	-0.05057
112	0x91e1	-0.0007176
113	0xa614	-0.02374
114	0x256c	0.02118
115	0x1c4e	0.004204
116	0xaec0	-0.10547
117	0xa9a2	-0.044
118	0x9c32	-0.004097
119	0x2d3d	0.08185
120	0xa48d	-0.01778
121	0xab98	-0.05933
122	0xacda	-0.0758
123	0xa07d	-0.008766
124	0x2013	0.00796
125	0x2c47	0.06683
126	0xac70	-0.06934
127	0xa6e5	-0.02693

model/re_lu_7/Relu;model/batch_normalization_10/FusedBatchNormV3;model/conv2d_7/BiasAdd/ReadVariableOp;model/conv2d_7/BiasAdd;model/depthwise_conv2d_3/depthwise;Conv2D f2 [32]
0	0xbbc0	-0.9688
1	0xb442	-0.266
2	0xb7e2	-0.4927
3	0xb5c9	-0.3616
4	0x3e07	1.507
5	0x334c	0.228
6	0x39d8	0.7305
7	0x3697	0.4119
8	0x2ec8	0.10596
9	0xb18a	-0.1731
10	0x2e51	0.0987
11	0xb10b	-0.1576
12	0xb9c6	-0.7217
13	0xaf1a	-0.11096
14	0x3bc2	0.9697
15	0x2d22	0.0802
16	0xb44d	-0.2688
17	0x326f	0.201
18	0xb6f9	-0.4358
19	0x387f	0.562
20	0x360f	0.3787
21	0xbc7e	-1.123
22	0xb2f1	-0.2169
23	0xb4db	-0.3035
24	0x3556	0.3335
25	0xbc07	-1.007
26	0xbb75	-0.932
27	0xaef7	-0.1088
28	0xbe26	-1.537
29	0x3879	0.559
30	0x38ac	0.584
31	0xb355	-0.2291

model/batch_normalization_11/FusedBatchNormV3;model/depthwise_conv2d_3/depthwise;model/depthwise_conv2d_3/BiasAdd/ReadVariableOp;model/depthwise_conv2d_3/BiasAdd1 f2 [1, 3, 3, 32]
0	0xb827	-0.519
1	0xb654	-0.3955
2	0x3512	0.317
3	0xb7ce	-0.4878
4	0xb71b	-0.444
5	0x3949	0.6606
6	0xb8e3	-0.611
7	0x3444	0.2666
8	0x34f2	0.309
9	0xaca7	-0.0727
10	0x36dc	0.4287
11	0x3510	0.3164
12	0xa5b1	-0.02223
13	0x382e	0.5225
14	0x3c4a	1.072
15	0x34b4	0.294
16	0xb16b	-0.1693
17	0xb938	-0.6523
18	0x3b2b	0.896
19	0xbb44	-0.908
20	0x31bd	0.1793
21	0x3440	0.2656
22	0x3893	0.572
23	0xb1d4	-0.1821
24	0x3c8a	1.135
25	0xb85a	-0.544
26	0xb97f	-0.687
27	0xb443	-0.2664
28	0xb810	-0.508
29	0xb732	-0.4497
30	0xb836	-0.5264
31	0xbbb1	-0.9614
32	0x30bb	0.1478
33	0x3971	0.68
34	0x391a	0.6377
35	0xba28	-0.7695
36	0xb4bc	-0.296
37	0x33fe	0.2498
38	0x2e11	0.0948
39	0x3ba9	0.9575
40	0x369c	0.413
41	0x34f8	0.3105
42	0xb33e	-0.2263
43	0x3a84	0.8145
44	0xb6b1	-0.4182
45	0x3886	0.5654
46	0x32a3	0.2074
47	0x343e	0.2651
48	0x3796	0.474
49	0xb8ae	-0.585
50	0xae40	-0.09766
51	0x3601	0.3752
52	0x9cc1	-0.004642
53	0xb5ac	-0.3545
54	0x3917	0.636
55	0xb098	-0.1436
56	0xadcf	-0.09076
57	0xb44d	-0.2688
58	0xaed9	-0.107
59	0xb973	-0.681
60	0xba43	-0.7827
61	0x3acd	0.85
62	0xba10	-0.758
63	0xb81e	-0.5146
64	0xb57a	-0.3423
65	0x30df	0.1522
66	0x36dd	0.429
67	0xb61f	-0.3826
68	0x366f	0.402
69	0xae00	-0.09375
70	0xbbc6	-0.9717
71	0x32cf	0.2128
72	0x356f	0.3396
73	0x36b6	0.4194
74	0x34d8	0.3027
75	0x3924	0.6426
76	0xb60a	-0.3774
77	0x3160	0.168
78	0x3080	0.1406
79	0xb36d	-0.232
80	0x3618	0.3809
81	0xb7cb	-0.487
82	0xabdf	-0.0615
83	0x36b9	0.4202
84	0xb474	-0.2783
85	0x30c5	0.149
86	0xb9ae	-0.71
87	0x3817	0.511
88	0xb9d5	-0.729
89	0x331b	0.222
90	0xb4ff	-0.3123
91	0xb925	-0.643
92	0xb857	-0.5425
93	0x2725	0.02791
94	0xb8b5	-0.5884
95	0xb53c	-0.3271
96	0xb954	-0.666
97	0xb4c3	-0.2976
98	0x3837	0.527
99	0xb775	-0.466
100	0x370b	0.4402
101	0x3394	0.2368
102	0x38e3	0.611
103	0xb351	-0.2286
104	0x3788	0.4707
105	0x3732	0.4497
106	0xb4b8	-0.295
107	0x83e8	-5.96e-05
108	0xb891	-0.571
109	0x337c	0.2339
110	0x388c	0.5684
111	0x3552	0.3325
112	0x36b8	0.42
113	0xad28	-0.08057
114	0x39c8	0.7227
115	0xb4aa	-0.2915
116	0x39b9	0.7153
117	0xba48	-0.785
118	0x345e	0.273
119	0x308c	0.1421
120	0x3721	0.4456
121	0xbb7c	-0.9355
122	0x38aa	0.583
123	0xa921	-0.04007
124	0xb3ec	-0.2476
125	0x3ce1	1.22
126	0x39e8	0.7383
127	0x33a2	0.2385
128	0xaeaa	-0.1041
129	0xb210	-0.1895
130	0x3820	0.5156
131	0xb7e1	-0.4924
132	0xb9a9	-0.7075
133	0xb65e	-0.398
134	0xb44a	-0.268
135	0xb637	-0.3884
136	0xb868	-0.551
137	0x3021	0.129
138	0xb4ff	-0.3123
139	0x3303	0.2191
140	0xbb82	-0.9385
141	0x33a6	0.239
142	0xb8c0	-0.5938
143	0x30c9	0.1495
144	0x370f	0.4412
145	0xb47a	-0.2798
146	0xb84d	-0.5376
147	0x36c1	0.422
148	0x26b4	0.02618
149	0xb9ca	-0.7236
150	0x22d6	0.01335
151	0xb8aa	-0.583
152	0xb0e3	-0.1527
153	0x393f	0.656
154	0x2bdd	0.06143
155	0x36fe	0.437
156	0xb635	-0.388
157	0xaa4e	-0.04926
158	0xb913	-0.6343
159	0x366d	0.4016
160	0xb3f2	-0.2483
161	0x3800	0.5
162	0x398f	0.695
163	0xb6ac	-0.417
164	0xb5c9	-0.3616
165	0x3877	0.558
166	0x356b	0.3386
167	0x3913	0.6343
168	0xbb7d	-0.936
169	0x356a	0.3384
170	0xb475	-0.2786
171	0x3729	0.4475
172	0xb0d7	-0.1512
173	0x31c1	0.1798
174	0xabbf	-0.06052
175	0xb071	-0.1388
176	0x3690	0.4102
177	0x2cb1	0.0733
178	0xaf33	-0.1125
179	0x30e9	0.1534
180	0xb110	-0.1582
181	0xb267	-0.2001
182	0xba36	-0.7764
183	0xb882	-0.5635
184	0x31ff	0.1874
185	0x3c93	1.144
186	0x271a	0.02774
187	0x342e	0.2612
188	0xa829	-0.0325
189	0xb25d	-0.1989
190	0xb396	-0.237
191	0x350b	0.3152
192	0xb35b	-0.2299
193	0xaa52	-0.04938
194	0x35ea	0.3696
195	0xae06	-0.0941
196	0xbb25	-0.893
197	0xba55	-0.7915
198	0xb7c2	-0.4849
199	0xb508	-0.3145
200	0xb327	-0.2235
201	0x37c8	0.4863
202	0xb860	-0.547
203	0xb10c	-0.1577
204	0x2bb9	0.06033
205	0x38d9	0.606
206	0xb9f2	-0.743
207	0x322c	0.1929
208	0xb6f8	-0.4355
209	0x388a	0.5674
210	0x3a05	0.7524
211	0xb76d	-0.464
212	0x397f	0.687
213	0x3ad5	0.854
214	0x3a0a	0.755
215	0xb261	-0.1993
216	0x3910	0.633
217	0xb4e4	-0.3057
218	0x3c4b	1.073
219	0xa83b	-0.03305
220	0x35aa	0.354
221	0x388e	0.5693
222	0x2db7	0.0893
223	0x3533	0.325
224	0x30e8	0.1533
225	0x31e5	0.1842
226	0x36d8	0.4277
227	0xb79b	-0.4753
228	0x3672	0.4028
229	0xb8ce	-0.6006
230	0xaf9e	-0.119
231	0xbaa0	-0.828
232	0xb72d	-0.4485
233	0x39ba	0.716
234	0xba01	-0.7505
235	0x246c	0.01727
236	0x3895	0.5728
237	0xb63d	-0.39
238	0xb16b	-0.1693
239	0x3caf	1.171
240	0xb887	-0.566
241	0xb163	-0.1683
242	0xb91a	-0.6377
243	0xb156	-0.1667
244	0x3965	0.6743
245	0x232a	0.01399
246	0xb617	-0.3806
247	0xba9a	-0.825
248	0xb778	-0.4668
249	0x3519	0.3186
250	0x388c	0.5684
251	0x37ed	0.4954
252	0x2b3f	0.0566
253	0xb821	-0.516
254	0x353c	0.3271
255	0x390e	0.632

model/batch_normalization_12/FusedBatchNormV3;model/conv2d_8/BiasAdd/ReadVariableOp;model/conv2d_8/BiasAdd f2 [128]
0	0x221d	0.01194
1	0x1f6e	0.007256
2	0xaf27	-0.11176
3	0x2d42	0.08215
4	0xb050	-0.1348
5	0xac73	-0.0695
6	0xa501	-0.01955
7	0xab97	-0.0593
8	0xad2c	-0.0808
9	0xac28	-0.06494
10	0x25a5	0.02205
11	0x2bcd	0.06094
12	0x20ce	0.009384
13	0x2883	0.03525
14	0xaef0	-0.1084
15	0x2845	0.03336
16	0xaa0c	-0.04724
17	0x2093	0.008934
18	0x24a0	0.01807
19	0xb0fe	-0.156
20	0xab7e	-0.05853
21	0xa581	-0.0215
22	0x2b56	0.0573
23	0xa6a7	-0.02599
24	0xa3a8	-0.01495
25	0x24ee	0.01926
26	0x2a88	0.05103
27	0xad4e	-0.0829
28	0xab14	-0.0553
29	0xa962	-0.04205
30	0x28ac	0.0365
31	0xa08a	-0.008865
32	0xa4dc	-0.01898
33	0xad25	-0.0804
34	0x1d6b	0.00529
35	0xaa9c	-0.05164
36	0x26f3	0.02715
37	0xad83	-0.0861
38	0xaad2	-0.05328
39	0xa01a	-0.00801
40	0xa951	-0.04153
41	0xadc3	-0.09
42	0xaad0	-0.05322
43	0xabe4	-0.06165
44	0xab22	-0.05573
45	0x21ce	0.01134
46	0x2a89	0.05106
47	0xa80f	-0.0317
48	0xae1a	-0.09534
49	0x27ef	0.03099
50	0xa8a2	-0.0362
51	0xa91e	-0.03998
52	0x291a	0.03986
53	0x24ee	0.01926
54	0x27bd	0.03023
55	0xae34	-0.0969
56	0x2c06	0.06287
57	0xaec4	-0.1057
58	0x9cf7	-0.00485
59	0xae79	-0.10114
60	0xadb1	-0.0889
61	0x1422	0.001009
62	0xafd3	-0.12225
63	0xac9b	-0.07196
64	0xaddd	-0.0916
65	0xab54	-0.05725
66	0xaa91	-0.0513
67	0x26eb	0.02702
68	0xae62	-0.09973
69	0xaf4c	-0.114
70	0xb07c	-0.1401
71	0x2bcf	0.061
72	0x2a1d	0.04776
73	0xb10b	-0.1576
74	0xacbf	-0.07416
75	0xa14d	-0.01035
76	0xa448	-0.01672
77	0x2dd5	0.0911
78	0x28f1	0.0386
79	0xafd2	-0.1222
80	0xaf0e	-0.1102
81	0xa010	-0.007935
82	0xa866	-0.03436
83	0xa913	-0.03964
84	0xade8	-0.0923
85	0xae89	-0.1021
86	0xabce	-0.06097
87	0xb0af	-0.1464
88	0x1b86	0.003674
89	0xad72	-0.0851
90	0xa88b	-0.0355
91	0xacaf	-0.0732
92	0xac6a	-0.069
93	0x22f4	0.01358
94	0xab68	-0.05786
95	0x2991	0.0435
96	0x2bab	0.0599
97	0x9964	-0.002632
98	0xa44b	-0.01677
99	0xa9e3	-0.046
100	0xadbc	-0.0896
101	0xa89e	-0.03607
102	0xa464	-0.01715
103	0xad39	-0.0816
104	0x2644	0.02448
105	0xa9fc	-0.04675
106	0xa867	-0.0344
107	0xabc0	-0.06055
108	0xabcd	-0.06094
109	0xae10	-0.0947
110	0xab5d	-0.05753
111	0xa900	-0.03906
112	0xa7ea	-0.03091
113	0xad53	-0.0832
114	0x269e	0.02585
115	0xabef	-0.06198
116	0xad48	-0.0825
117	0xa47d	-0.01753
118	0xa939	-0.0408
119	0xa98e	-0.0434
120	0xad3d	-0.08185
121	0x20fb	0.00973
122	0xb14b	-0.1654
123	0xae1f	-0.09564
124	0xa270	-0.01257
125	0x247e	0.01755
126	0xaea7	-0.10394
127	0xa9f9	-0.04666
